mpi-data/Models/all_mpi_model_pred.pth (torch, 134175 bytes, 3 tensors)

weight f4 [128, 256]
000000 ea a5 a6 bd e8 94 a8 3d 34 0c 42 bd 4b 89 b4 bd
       -0.08137114 0.082315266 -0.04737492 -0.08815249
000010 53 c8 d7 bc 29 cf 24 bd c2 24 83 bb c8 2c 77 bd
       -0.02634064 -0.040236626 -0.0040021846 -0.06034544
000020 7b db a8 bd 4c 38 9b bc 74 4a 38 bd 5b 24 86 bd
       -0.082449876 -0.018947743 -0.04499288 -0.06549903
000030 10 bb 1f 3d 26 1d 83 bd f4 7d a6 bb 5c a7 a8 bb
       0.038996756 -0.06402044 -0.0050809328 -0.005146904
000040 68 02 80 3c 43 ae f8 bc a6 d4 5f bb 39 31 60 bc
       0.015626147 -0.030356532 -0.0034153848 -0.013683611
000050 8e 5b 29 bc 10 37 69 3d ef 86 bd bd f9 4a de bb
       -0.01033677 0.056937277 -0.09254252 -0.00678384
000060 99 79 ea 3d 8f 7f ac bd 52 ce a5 bc 48 10 9e bb
       0.11448974 -0.08422767 -0.020239983 -0.004823718
000070 32 7b 66 bb 6a ee 45 bd a9 ca 13 3d 95 07 29 3c
       -0.0035168645 -0.048323072 0.036081944 0.010316749
000080 2b e8 49 bc 40 6b 55 3c d8 e3 3a bc 9d d6 99 3c
       -0.01232342 0.013026059 -0.011406861 0.018779093
000090 01 8a f8 bb 86 a3 28 3d 55 4e b1 3b 9c 2f 71 3d
       -0.0075848107 0.041171573 0.0054109492 0.058883294
0000a0 ca f7 4c bb 8c 0a 6e 3d 7e 16 08 bd 76 4e d2 bd
       -0.0031275623 0.058115527 -0.033224575 -0.102688715
0000b0 0a 63 2d 3c 8d 4a 2f 3c 68 ac db 3b 90 db 89 bd
       0.010582695 0.010698927 0.006703902 -0.06731331
0000c0 92 c7 ff 3c f2 d9 20 bd 56 4c 85 3d 78 80 68 bc
       0.031223092 -0.03927035 0.065087005 -0.014190786
0000d0 7c a0 b1 3d d8 09 0e 3c 99 58 88 bd 30 72 e2 bc
       0.08673188 0.008669339 -0.06657524 -0.02764234
0000e0 35 34 53 bd 47 b5 8c 3d f2 a3 ae bd fe 43 b3 3c
       -0.05156346 0.068705134 -0.08527364 0.021883007
0000f0 d1 6e 0f bd 29 ec 44 b7 92 ac 47 3c 68 d6 01 3c
       -0.035017792 -1.1737496e-05 0.01218714 0.007924654
000100 3b f0 3e bd 19 e3 8d 3d 5e e7 a0 bc c5 3f 1f 3d
       -0.04661582 0.06928081 -0.019641574 0.038879175
000110 11 bd f3 3c 68 11 a9 3d da f4 6b 3c 6b cc 5d 3d
       0.02975324 0.08255273 0.014401639 0.054150026
000120 db 6d 92 3c 7e d8 61 3d 85 6b 95 3d 46 28 6d bd
       0.017874649 0.055138104 0.07295898 -0.057899736
000130 c3 10 2a bc 36 bb a5 3c cd 56 0b bd 2b 75 72 3d
       -0.010379973 0.02023087 -0.034018327 0.05919377
000140 e1 be 7c 3d 7c a9 a4 bc 75 7f 87 bd 9c 85 5f 3c
       0.061705474 -0.020100348 -0.066161074 0.013642695
000150 1d d0 cf 3a 44 21 62 3d ae 20 f1 3a 01 25 bb 3b
       0.0015854869 0.055207506 0.001839658 0.0057111983
000160 9f ce b1 3d 07 36 d3 3d 0f 03 55 3d 83 3c a7 3c
       0.08681988 0.10313039 0.05200487 0.020414596
000170 7e f4 7a bd 9b da 0c 3c 4b d3 31 39 a0 4a 87 3c
       -0.061268322 0.0085970415 0.00016958748 0.016515076
000180 45 49 5b 3d 80 8e d1 bb 7e 2f 17 bc 09 57 91 3d
       0.053536672 -0.006395161 -0.009227632 0.07096679
000190 cf 3a 17 bc a3 d3 80 bd 0a 13 bc 3d 0e 9e bb bc
       -0.00923033 -0.062903665 0.09183319 -0.022902515
0001a0 d2 45 99 bc 29 d6 68 bb d6 56 6b 3c 5a 13 24 3d
       -0.01871005 -0.003552804 0.014363965 0.040057518
0001b0 8a 7f 94 bd b7 63 ae bd cb 3b b7 3c 0b 96 92 bd
       -0.07250889 -0.08515113 0.022367379 -0.07157525
0001c0 52 61 94 3c aa b3 59 3c eb d9 99 bd e9 90 dd 3d
       0.018112812 0.013287464 -0.07512268 0.10818655
0001d0 4d 62 0b bc bb d4 ac bc a6 21 49 3c a4 60 d0 3c
       -0.008507323 -0.021097532 0.012276089 0.025436707
0001e0 59 e4 25 bd 63 1a 71 3d 41 90 a7 3c bb df 08 3c
       -0.040500972 0.058863055 0.020454528 0.008354123
0001f0 ce cb 06 3d df 82 6f bd 4a e8 a7 bd 47 b6 93 bd
       0.032909207 -0.058474418 -0.081986025 -0.07212501
000200 36 ca e8 3b cd 9c 99 3d bf f1 7f bd 54 64 c7 bc
       0.0071041835 0.075006105 -0.062486406 -0.024339832
000210 8f ff 0f bd 93 5f b9 bd bd aa b5 bb a4 c2 64 bd
       -0.03515583 -0.090514325 -0.005544035 -0.055849686
000220 e8 4e 84 be 39 e7 a0 bd 5a 64 33 bd 39 af dd 3c
       -0.2584145 -0.07856602 -0.043796875 0.027061092
000230 20 b8 4f 3d e6 4f 9a bd c3 95 7a 3c 88 a3 48 bd
       0.050712705 -0.07534771 0.015294495 -0.04898408
000240 38 54 10 3c ee 60 8b bd 85 37 11 bc 9c f0 55 bd
       0.008809142 -0.06805597 -0.008863335 -0.052231416
000250 f2 d9 21 3c 43 90 42 bc 55 2a f3 3b 56 bf b1 bc
       0.009878622 -0.011875215 0.007420818 -0.021697681
000260 db 6d 3e 3d ff 5e 5b bd 0b 0c d8 bd f2 89 ab bd
       0.046491485 -0.053557392 -0.10549172 -0.0837592
000270 60 dc f3 ba 49 77 3b bd 71 74 10 bb ea 89 43 3d
       -0.0018605106 -0.045768056 -0.002204206 0.047738947
000280 2f f4 5a 3c 82 cd 7e 3d 15 a5 fc bc 5a ed 00 3b
       0.013363882 0.062207706 -0.030840436 0.0019672723
000290 2a 6b 0a 3c f4 47 b4 3c a3 6f bf 3d f4 fa ab 3d
       0.0084484015 0.022006966 0.09347465 0.08397475
0002a0 b4 76 79 bd 95 6c 5f 3c ef a4 ac 3c 97 89 d4 bd
       -0.06090422 0.013636728 0.02107474 -0.10377806
0002b0 b5 db f3 3d 46 77 cc bb b7 c1 55 bd c5 2e 96 3c
       0.1190714 -0.0062398044 -0.052186694 0.018332848
0002c0 1f 22 3c 3d 25 20 5d bc 1a 32 8b 3d 61 64 2e 3c
       0.045930978 -0.013496433 0.067966655 0.010644049
0002d0 07 cf ca 3c 3b 26 f3 3b 06 bc 2c bd ff 48 4b bd
       0.024756921 0.007420329 -0.0421715 -0.04963016
0002e0 dd db 0d bd e1 cb d8 3d 57 d3 a1 bc bd 79 d9 3c
       -0.034633506 0.10585762 -0.019754095 0.026547307
0002f0 76 b6 6d 3d 42 3b 03 3c d2 0d 93 3d 9c 84 cd 3d
       0.058035336 0.008009734 0.071803704 0.10035059
000300 3b 5b 44 bd 57 02 93 3d 27 5d 8f bd ce b2 9b bd
       -0.047938567 0.07178181 -0.07000189 -0.07602464
000310 63 26 68 3d 5e 94 f5 3c 11 0c 87 bd 57 53 64 3d
       0.056677233 0.029977974 -0.06594098 0.05574354
000320 09 02 b5 bd b7 bf 6c 3d 62 77 08 bc ee f4 9a 3c
       -0.08838279 0.05780002 -0.008329244 0.01891562
000330 b0 c1 c8 bd 7d dc 51 3d 4a f9 35 3d 90 eb 22 3d
       -0.09802568 0.051235665 0.044427194 0.03977543
000340 78 c4 e9 3d ac c4 59 bd 34 42 50 bd e4 ae fb bc
       0.114144266 -0.053166077 -0.050844386 -0.030723043
000350 30 71 09 bb 50 9e 40 3d d0 31 5b bd 62 c4 96 3d
       -0.0020972006 0.04702598 -0.0535143 0.07361676
000360 fd 73 ad 3a 2c 92 c8 3c 70 95 8c 3c bc 17 82 bd
       0.001323342 0.024483763 0.017161101 -0.06352183
000370 0d 43 ec bc c1 3f c1 3b 2f 66 40 bd 2d 6a a2 bd
       -0.028840566 0.0058974926 -0.04697245 -0.07930408
000380 6f 51 9c 3c 08 0e 1f bd 54 9f d1 bc 0e 25 4d bc
       0.0190818 -0.03883174 -0.025588669 -0.012521042
000390 56 6f 10 3d e9 7d c1 bd 3b 16 51 3c d6 ca a1 3c
       0.03526243 -0.094478436 0.012761648 0.01975004
0003a0 d6 8f 7d 3c f9 e0 48 bd 02 8e 1a bd de bd 26 3d
       0.015476188 -0.049042676 -0.037733085 0.040708415
0003b0 bc 26 4e bd a0 64 51 bd 1d 25 8f bc 10 d4 b0 bd
       -0.05032991 -0.051121354 -0.017473752 -0.08634198
0003c0 e9 08 ec bc cc 8a 98 bd ee e8 72 bd 9b 5c 0a 3c
       -0.028812842 -0.074483484 -0.05930417 0.00844493
0003d0 7f 26 6c bd 60 e0 39 bd fa 7f 3c 3c 69 1d 52 39
       -0.0576539 -0.045379996 0.011505121 0.00020038117
0003e0 55 bc 35 bd 0e e3 ef 3c 0b 4d d1 3d e6 da 87 bb
       -0.04436906 0.029283073 0.10219773 -0.004145968
0003f0 4e 8b 41 bd ba 65 18 bd 4c 79 50 3d 0c 6a 85 bd
       -0.047251992 -0.03720639 0.050896928 -0.065143675

bias f4 [128]
000000 b7 2d b6 bc 3c 6e 05 3e ef 93 22 3c 5f 60 99 3d
       -0.022238595 0.13030332 0.009922965 0.074890845
000010 6e f9 8d bd bb 18 6e 3d 29 67 0d bc aa 5c d8 bd
       -0.069323406 0.058129054 -0.008630552 -0.10564549
000020 d2 69 b7 bd bb 09 c7 bd 3d c0 61 bd 2a ff 38 3e
       -0.089557305 -0.09718653 -0.055114973 0.18066087
000030 f5 5b 82 bd 00 5c 3c 3e 69 2f 97 bd e0 d8 36 3d
       -0.06365196 0.1839447 -0.0738209 0.044640422
000040 ba 56 dc 3c 3d 48 5f bd 42 3c 23 bd c4 64 cd bd
       0.026896823 -0.05451225 -0.03985239 -0.10028985
000050 2e 35 92 bc 05 af 3e bd 70 69 d0 bc 5f 1b dc bd
       -0.017847624 -0.04655363 -0.025440902 -0.10747408
000060 46 f1 89 bd ef 22 d7 bb 5c ee 8f 3c 94 8d f9 bc
       -0.067354724 -0.0065654437 0.017569713 -0.030463018
000070 6b d4 0c 3d d0 34 5a be d1 58 89 bd 19 38 49 3e
       0.034382265 -0.21309209 -0.067063935 0.19650306
000080 05 82 1d be e7 23 02 3e 65 97 43 3e 1a 60 42 3e
       -0.1538163 0.12709008 0.19100721 0.18981972
000090 29 ff 16 bd 89 8a e5 bc de a3 11 be cb 1c 8b bd
       -0.036864433 -0.02802016 -0.14222667 -0.06792601
0000a0 c4 59 c7 bd 90 f7 15 bd 20 b8 8b 3e a6 7c 66 bd
       -0.09733918 -0.036613047 0.27288914 -0.056271218
0000b0 93 e0 99 3d 9b 85 d1 bd 85 ea 1d 3e 8e b7 77 bd
       0.07513537 -0.10230561 0.15421493 -0.060477786
0000c0 c6 16 be bd 25 49 09 be 27 63 8a bd 8a cb 23 3d
       -0.092816874 -0.13406809 -0.06757193 0.03998903
0000d0 7b 92 38 3d 97 40 22 be 41 25 2a bc 86 6a 2a bd
       0.04506157 -0.15844952 -0.010384859 -0.041605495
0000e0 d9 d2 e1 3d 72 38 79 bd c6 13 47 bc e5 f4 dc 3d
       0.11026544 -0.060844846 -0.01215071 0.107888974
0000f0 b7 b3 43 ba 17 46 91 bd ed c4 10 bd d7 ff e7 bb
       -0.0007465439 -0.07093447 -0.035344053 -0.007080059
000100 96 4a 4a 3e fe 87 bf 3d 57 b6 2b 3c 73 94 da bd
       0.19755015 0.0935211 0.010480485 -0.10672846
000110 70 d6 90 bb 34 01 e4 bc 07 24 d6 bd dc 2a c2 3c
       -0.004420094 -0.027832605 -0.104560904 0.023702078
000120 cf 93 6f bc b3 89 6f bd 21 6a 96 bd 6f 7f cd bd
       -0.014622643 -0.05848093 -0.07344461 -0.10034072
000130 7f 5e f2 bd f2 31 2a bd b1 47 3f bd 41 4c f4 3c
       -0.1183443 -0.041551538 -0.04669923 0.029821517
000140 9d 4d 19 3e 7f 4c 30 bd f2 f3 61 3c 4d 6b 04 3d
       0.14971013 -0.043041702 0.013791071 0.032328892
000150 82 d6 29 bd 43 b7 f1 bb 4f 70 67 3e 1a e5 1f 3c
       -0.041464336 -0.007376583 0.22601436 0.009759212
000160 b8 19 02 bd 4d ce b7 bd 32 38 00 3e 8f 5d 6d 3d
       -0.03176281 -0.089748956 0.12521437 0.057950553
000170 3f 8f c0 bd 4a 70 8c bc d3 9c 97 bb 09 70 9c bc
       -0.09402322 -0.017143387 -0.004626849 -0.019096391
000180 bc 3c bf b9 86 57 04 3d 2e 10 be bd 25 2a f9 bb
       -0.0003647561 0.03231003 -0.0928043 -0.007603901
000190 cc 72 be bd 86 ab b4 bd b6 89 20 3e bc af 89 bd
       -0.092992395 -0.08821778 0.15677533 -0.06722972
0001a0 b9 88 c4 3c c0 6e 2e bd ce d6 09 bd 5c 5b 4d 3e
       0.023990976 -0.04258609 -0.03365212 0.20054382
0001b0 e5 4c 20 bd 24 e4 4b bd dd 7d d8 bd 64 47 7a bd
       -0.039135832 -0.04977812 -0.105708815 -0.06110324
0001c0 d9 78 e3 bc 65 12 82 bd 83 0f 28 bd f7 dc 2e be
       -0.027767586 -0.06351165 -0.041030418 -0.17076479
0001d0 f8 61 9f bd f8 67 80 3d e6 22 46 3c c2 ae 2d 3e
       -0.07782358 0.062698305 0.012093281 0.16961196
0001e0 66 82 07 be 66 9b 16 bd f2 8f 6e 3d 4e df d6 bd
       -0.13233337 -0.036769293 0.058242746 -0.10491811
0001f0 86 f2 9b 3c cc 2d d6 bb 9b 3f 9e bb c5 33 ad bd
       0.019036543 -0.006536221 -0.0048293597 -0.0845714

weight f4 [1, 128]
000000 4a c1 c8 3c e9 4d 64 3d 79 c7 6f bc 96 eb ee 3e
       0.02450623 0.055738363 -0.01463496 0.46664113
000010 17 dc 99 3a fe a5 ee 3d 7b d0 3b bd ab b7 74 3d
       0.0011738566 0.11652754 -0.04585312 0.059745472
000020 fc 04 0d 3d ee a6 97 bc b6 92 15 bd 5e 4e a2 3d
       0.03442858 -0.018512215 -0.036516868 0.079251036
000030 57 5e ac 3e 31 ae b6 3d 1f 8d 28 3d 6c d5 a0 3d
       0.33665726 0.08919943 0.04115021 0.07853207
000040 6b c4 b9 3e e2 68 2d 3d 73 80 b2 bb f6 26 1d 3f
       0.36282668 0.042336352 -0.0054474412 0.61387575
000050 10 00 3c 3d f7 1a 1b 3d 5c d8 b5 bc 6b 24 ad be
       0.045898497 0.037867513 -0.022197895 -0.33816847
000060 bb ca 24 3f fd 63 24 bf d6 14 c8 3e 17 d1 03 3f
       0.6437184 -0.6421507 0.39078397 0.5149092
000070 5a 90 31 3d d0 d6 f7 be 18 3f 06 3d 82 54 a1 3d
       0.043350555 -0.48406076 0.032775015 0.07877447
000080 80 b1 7f bf ab f8 6b 3d d8 9e a0 3d 44 e9 b5 3d
       -0.9988022 0.057610195 0.07842797 0.088823825
000090 21 91 84 3c 7b 6f 48 bf 1c 00 17 bf d6 50 ed 3c
       0.016182484 -0.78295106 -0.5898454 0.02896921
0000a0 41 ed 0c bf b3 9f 14 bc 1d 02 6d 3e 33 84 37 bd
       -0.5504952 -0.009071278 0.23145337 -0.04480381
0000b0 0b 80 e1 3e ed 76 21 3d c9 9e 5b 3e 08 8c cc 3d
       0.44043002 0.039420057 0.2144729 0.09987646
0000c0 0b dc 09 3d b1 e9 3d 3d 50 dc 30 3c 39 48 9d 3d
       0.033657115 0.046365444 0.010794714 0.07679791
0000d0 23 39 db bf c9 28 88 be 85 7f 2b 3d 92 d9 30 3d
       -1.7126812 -0.26593617 0.04186966 0.04317624
0000e0 0e 1d b8 3e 8a da 94 be f3 08 89 be a0 37 20 3d
       0.35959667 -0.29072982 -0.2676464 0.039115548
0000f0 f0 e3 3b 3c 28 13 02 3d ed 0b a9 3d f8 68 1d bd
       0.011467919 0.03175655 0.08254228 -0.038430184
000100 2c 17 b8 3d 67 6d b7 3d d3 27 1d ba 2e e3 a1 be
       0.08988795 0.08956414 -0.0005995009 -0.31618637
000110 ea 09 e7 bc db cc 3b bc ee bc d6 bb 0f 56 89 3e
       -0.02820297 -0.011462416 -0.006553284 0.2682347
000120 57 20 8e bf 01 71 1f 3d 11 b8 31 3d b1 53 0b bf
       -1.1103619 0.03892613 0.04338843 -0.5442458
000130 15 2d f9 3b c6 0b 4f bf c8 4c 0d 3f 01 bb 8b 3d
       0.007604251 -0.8087734 0.55195284 0.068227775
000140 4f 3f e2 3e cf e1 24 bd bc 27 1d 3d 42 16 65 bf
       0.44188926 -0.04025441 0.03836797 -0.8948709
000150 2d 64 1b 3c a7 ae 99 bc 8b 6b 03 3e 05 87 71 bc
       0.009484333 -0.018760039 0.12833993 -0.014741664
000160 cd 9b 94 3e b3 7d 26 bf 2c 61 7e 3d b7 a0 fd 3d
       0.29025117 -0.6503555 0.06210439 0.123841695
000170 48 4f 5f 3d e1 b0 24 bf 23 80 72 3c b1 d6 5b 3d
       0.054518968 -0.64332396 0.014801058 0.053671543
000180 20 83 42 3d 29 54 f1 3c 68 0f ee bd 9a b8 b5 bc
       0.04748833 0.029459076 -0.11624032 -0.022182751
000190 4e f5 32 3c 18 b1 1f be 3a 55 c1 3e 9e 4e 89 3f
       0.010922743 -0.155949 0.37760335 1.0727117
0001a0 a5 47 5b 3c 67 ae 8e 3d ae a0 c5 bc af de 0a 3f
       0.013383781 0.06966858 -0.02412447 0.5424604
0001b0 d5 27 19 3a 20 a3 39 bf e5 82 93 bd 42 21 b8 3c
       0.0005842422 -0.72514534 -0.072027005 0.022476796
0001c0 97 ba 63 3d 4f 68 4b bf dd fd 83 be e6 51 00 bf
       0.055597868 -0.7945604 -0.2577962 -0.5012497
0001d0 c6 ba 33 3d 09 26 7f 3f 64 58 59 3c 55 d3 46 3d
       0.043879293 0.9966741 0.013265703 0.048541386
0001e0 79 15 47 bf ed 36 b2 bc 2d 58 12 3f 6b d4 87 bf
       -0.7776714 -0.021754706 0.57165796 -1.06117
0001f0 4a 27 81 3c aa 6b 95 bd e9 05 1f bd 37 5a 03 3d
       0.015765805 -0.07295926 -0.038823996 0.032068457
